ir_version: 5
producer_name: "skl2onnx"
producer_version: "1.5.2"
domain: "ai.onnx"
model_version: 0
doc_string: ""
graph {
  node {
    input: "input"
    output: "cast_input"
    name: "Cast"
    op_type: "Cast"
    attribute {
      name: "to"
      i: 1
      type: INT
    }
    domain: ""
  }
  node {
    input: "cast_input"
    input: "coefficient"
    output: "mul_result"
    name: "MatMul"
    op_type: "MatMul"
    domain: ""
  }
  node {
    input: "mul_result"
    input: "intercepts"
    output: "add_result"
    name: "Add"
    op_type: "Add"
    domain: ""
  }
  node {
    input: "add_result"
    output: "next_activations"
    name: "Sigmoid"
    op_type: "Sigmoid"
    domain: ""
  }
  node {
    input: "next_activations"
    input: "coefficient1"
    output: "mul_result1"
    name: "MatMul1"
    op_type: "MatMul"
    domain: ""
  }
  node {
    input: "mul_result1"
    input: "intercepts1"
    output: "add_result1"
    name: "Add1"
    op_type: "Add"
    domain: ""
  }
  node {
    input: "add_result1"
    output: "out_activations_result"
    name: "Sigmoid1"
    op_type: "Softmax"
    domain: ""
  }
  node {
    input: "classes"
    input: "argmax_output"
    output: "array_feature_extractor_result"
    name: "ArrayFeatureExtractor"
    op_type: "ArrayFeatureExtractor"
    domain: "ai.onnx.ml"
  }
  node {
    input: "out_activations_result"
    output: "probabilities"
    name: "Identity"
    op_type: "Identity"
    domain: ""
  }
  node {
    input: "probabilities"
    output: "argmax_output"
    name: "ArgMax"
    op_type: "ArgMax"
    attribute {
      name: "axis"
      i: 1
      type: INT
    }
    domain: ""
  }
  node {
    input: "array_feature_extractor_result"
    input: "shape_tensor"
    output: "reshaped_result"
    name: "Reshape"
    op_type: "Reshape"
    domain: ""
  }
  node {
    input: "reshaped_result"
    output: "label"
    name: "Cast1"
    op_type: "Cast"
    attribute {
      name: "to"
      i: 7
      type: INT
    }
    domain: ""
  }
  node {
    input: "label"
    output: "output_label"
    name: "Cast2"
    op_type: "Cast"
    attribute {
      name: "to"
      i: 7
      type: INT
    }
    domain: ""
  }
  node {
    input: "probabilities"
    output: "output_probability"
    name: "ZipMap"
    op_type: "ZipMap"
    attribute {
      name: "classlabels_int64s"
      ints: 0
      ints: 1
      ints: 2
      ints: 3
      ints: 4
      ints: 5
      ints: 6
      ints: 7
      ints: 8
      ints: 9
      type: INTS
    }
    domain: "ai.onnx.ml"
  }
  name: "fda9d68e632e4df8bb7f5420d5c43ef4"
  initializer {
    dims: 64
    dims: 15
    data_type: 1
…
    name: "coefficient"
  }
  initializer {
    dims: 1
    dims: 15
    data_type: 1
    float_data: 0.14839275181293488
    float_data: 0.14317254722118378
    float_data: 0.06474119424819946
    float_data: 0.16194602847099304
    float_data: -0.1810845583677292
    float_data: -0.1476978361606598
    float_data: -0.020632795989513397
    float_data: -0.06583362817764282
    float_data: 0.13078628480434418
    float_data: 0.03745127096772194
    float_data: -0.006112152244895697
    float_data: 0.11117950826883316
    float_data: -0.005456527695059776
    float_data: 0.10421690344810486
    float_data: -0.0777653157711029
    name: "intercepts"
  }
  initializer {
    dims: 15
    dims: 10
    data_type: 1
…
    name: "coefficient1"
  }
  initializer {
    dims: 1
    dims: 10
    data_type: 1
    float_data: -0.4245036244392395
    float_data: 0.3654501438140869
    float_data: 1.264304280281067
    float_data: -0.29421886801719666
    float_data: -0.31427282094955444
    float_data: -0.9248428344726562
    float_data: -0.3145067095756531
    float_data: 0.12269353866577148
    float_data: 0.6104782819747925
    float_data: -0.12194615602493286
    name: "intercepts1"
  }
  initializer {
    dims: 10
    data_type: 6
    int32_data: 0
    int32_data: 1
    int32_data: 2
    int32_data: 3
    int32_data: 4
    int32_data: 5
    int32_data: 6
    int32_data: 7
    int32_data: 8
    int32_data: 9
    name: "classes"
  }
  initializer {
    dims: 1
    data_type: 7
    int64_data: -1
    name: "shape_tensor"
  }
  input {
    name: "input"
    type {
      tensor_type {
        elem_type: 1
        shape {
          dim {
            dim_value: 1
          }
          dim {
            dim_value: 64
          }
        }
      }
    }
  }
  output {
    name: "output_label"
    type {
      tensor_type {
        elem_type: 7
        shape {
          dim {
            dim_value: 1
          }
        }
      }
    }
  }
  output {
    name: "output_probability"
    type {
      sequence_type {
        elem_type {
          map_type {
            key_type: 7
            value_type {
              tensor_type {
                elem_type: 1
              }
            }
          }
        }
      }
    }
  }
}
opset_import {
  domain: ""
  version: 9
}
opset_import {
  domain: "ai.onnx.ml"
  version: 1
}
